…
k_running_stats=True)", "parameters": [["weight", [64]], ["bias", [64]]], "output_shape": [[12, 64, 256, 256]], "num_parameters": [64, 64]}, {"name": "encoder.2", "id": 124166100483184, "class_name": "ReLU(inplace=True)", "parameters": [], "output_shape": [[12, 64, 256, 256]], "num_parameters": []}, {"name": "encoder.3", "id": 124166100483376, "class_name": "MaxPool2d(kernel_size=3, stride=2, padding=1, dilation=1, ceil_mode=False)", "parameters": [], "output_shape": [[12, 64, 128, 128]], "num_parameters": []}, {"name": "encoder.4.0", "id": 124166100483472, "class_name": "BasicBlock(\n  (conv1): Conv2d(64, 64, kernel_size=(3, 3), stride=(1, 1), padding=(1, 1), bias=False)\n  (bn1): BatchNorm2d(64, eps=1e-05, momentum=0.1, affine=True, track_running_stats=True)\n  (relu): ReLU(inplace=True)\n  (conv2): Conv2d(64, 64, kernel_size=(3, 3), stride=(1, 1), padding=(1, 1), bias=False)\n  (bn2): BatchNorm2d(64, eps=1e-05, momentum=0.1, affine=True, track_running_stats=True)\n)", "parameters": [["conv1.weight", [64, 64, 3, 3]], ["bn1.weight", [64]], ["bn1.bias", [64]], ["conv2.weight", [64, 64, 3, 3]], ["bn2.weight", [64]], ["bn2.bias", [64]]], "output_shape": [[12, 64, 128, 128]], "num_parameters": [36864, 64, 64, 36864, 64, 64]}, {"name": "encoder.4.1", "id": 124166100181584, "class_name": "BasicBlock(\n  (conv1): Conv2d(64, 64, kernel_size=(3, 3), stride=(1, 1), padding=(1, 1), bias=False)\n  (bn1): BatchNorm2d(64, eps=1e-05, momentum=0.1, affine=True, track_running_stats=True)\n  (relu): ReLU(inplace=True)\n  (conv2): Conv2d(64, 64, kernel_size=(3, 3), stride=(1, 1), padding=(1, 1), bias=False)\n  (bn2): BatchNorm2d(64, eps=1e-05, momentum=0.1, affine=True, track_running_stats=True)\n)", "parameters": [["conv1.weight", [64, 64, 3, 3]], ["bn1.weight", [64]], ["bn1.bias", [64]], ["conv2.weight", [64, 64, 3, 3]], ["bn2.weight", [64]], ["bn2.bias", [64]]], "output_shape": [[12, 64, 128, 128]], "num_parameters": [36864, 64, 64, 36864, 64, 64]}, {"name": "encoder.5.0", "id": 124166100182064, "class_name": "BasicBlock(\n  (conv1): Conv2d(64, 128, kernel_size=(3, 3), stride=(2, 2), padding=(1, 1), bias=False)\n  (bn1): BatchNorm2d(128, eps=1e-05, momentum=0.1, affine=True, track_running_stats=True)\n  (relu): ReLU(inplace=True)\n  (conv2): Conv2d(128, 128, kernel_size=(3, 3), stride=(1, 1), padding=(1, 1), bias=False)\n  (bn2): BatchNorm2d(128, eps=1e-05, momentum=0.1, affine=True, track_running_stats=True)\n  (downsample): Sequential(\n    (0): Conv2d(64, 128, kernel_size=(1, 1), stride=(2, 2), bias=False)\n    (1): BatchNorm2d(128, eps=1e-05, momentum=0.1, affine=True, track_running_stats=True)\n  )\n)", "parameters": [["conv1.weight", [128, 64, 3, 3]], ["bn1.weight", [128]], ["bn1.bias", [128]], ["conv2.weight", [128, 128, 3, 3]], ["bn2.weight", [128]], ["bn2.bias", [128]], ["downsample.0.weight", [128, 64, 1, 1]], ["downsample.1.weight", [128]], ["downsample.1.bias", [128]]], "output_shape": [[12, 128, 64, 64]], "num_parameters": [73728, 128, 128, 147456, 128, 128, 8192, 128, 128]}, {"name": "encoder.5.1", "id": 124166100182352, "class_name": "BasicBlock(\n  (conv1): Conv2d(128, 128, kernel_size=(3, 3), stride=(1, 1), padding=(1, 1), bias=False)\n  (bn1): BatchNorm2d(128, eps=1e-05, momentum=0.1, affine=True, track_running_stats=True)\n  (relu): ReLU(inplace=True)\n  (conv2): Conv2d(128, 128, kernel_size=(3, 3), stride=(1, 1), padding=(1, 1), bias=False)\n  (bn2): BatchNorm2d(128, eps=1e-05, momentum=0.1, affine=True, track_running_stats=True)\n)", "parameters": [["conv1.weight", [128, 128, 3, 3]], ["bn1.weight", [128]], ["bn1.bias", [128]], ["conv2.weight", [128, 128, 3, 3]], ["bn2.weight", [128]], ["bn2.bias", [128]]], "output_shape": [[12, 128, 64, 64]], "num_parameters": [147456, 128, 128, 147456, 128, 128]}, {"name": "encoder.6.0", "id": 124166100182832, "class_name": "BasicBlock(\n  (conv1): Conv2d(128, 256, kernel_size=(3, 3), stride=(2, 2), padding=(1, 1), bias=False)\n  (bn1): BatchNorm2d(256, eps=1e-05, momentum=0.1, affine=True, track_running_stats=True)\n  (relu): ReLU(inplace=True)\n  (conv2): Conv2d(256, 256, kernel_size=(3, 3), stride=(1, 1), padding=(1, 1), bias=False)\n  (bn2): BatchNorm2d(256, eps=1e-05, momentum=0.1, affine=True, track_running_stats=True)\n  (downsample): Sequential(\n    (0): Conv2d(128, 256, kernel_size=(1, 1), stride=(2, 2), bias=False)\n    (1): BatchNorm2d(256, eps=1e-05, momentum=0.1, affine=True, track_running_stats=True)\n  )\n)", "parameters": [["conv1.weight", [256, 128, 3, 3]], ["bn1.weight", [256]], ["bn1.bias", [256]], ["conv2.weight", [256, 256, 3, 3]], ["bn2.weight", [256]], ["bn2.bias", [256]], ["downsample.0.weight", [256, 128, 1, 1]], ["downsample.1.weight", [256]], ["downsample.1.bias", [256]]], "output_shape": [[12, 256, 32, 32]], "num_parameters": [294912, 256, 256, 589824, 256, 256, 32768, 256, 256]}, {"name": "encoder.6.1", "id": 124166100183120, "class_name": "BasicBlock(\n  (conv1): Conv2d(256, 256, kernel_size=(3, 3), stride=(1, 1), padding=(1, 1), bias=False)\n  (bn1): BatchNorm2d(256, eps=1e-05, momentum=0.1, affine=True, track_running_stats=True)\n  (relu): ReLU(inplace=True)\n  (conv2): Conv2d(256, 256, kernel_size=(3, 3), stride=(1, 1), padding=(1, 1), bias=False)\n  (bn2): BatchNorm2d(256, eps=1e-05, momentum=0.1, affine=True, track_running_stats=True)\n)", "parameters": [["conv1.weight", [256, 256, 3, 3]], ["bn1.weight", [256]], ["bn1.bias", [256]], ["conv2.weight", [256, 256, 3, 3]], ["bn2.weight", [256]], ["bn2.bias", [256]]], "output_shape": [[12, 256, 32, 32]], "num_parameters": [589824, 256, 256, 589824, 256, 256]}, {"name": "encoder.7.0", "id": 124166100183600, "class_name": "BasicBlock(\n  (conv1): Conv2d(256, 512, kernel_size=(3, 3), stride=(2, 2), padding=(1, 1), bias=False)\n  (bn1): BatchNorm2d(512, eps=1e-05, momentum=0.1, affine=True, track_running_stats=True)\n  (relu): ReLU(inplace=True)\n  (conv2): Conv2d(512, 512, kernel_size=(3, 3), stride=(1, 1), padding=(1, 1), bias=False)\n  (bn2): BatchNorm2d(512, eps=1e-05, momentum=0.1, affine=True, track_running_stats=True)\n  (downsample): Sequential(\n    (0): Conv2d(256, 512, kernel_size=(1, 1), stride=(2, 2), bias=False)\n    (1): BatchNorm2d(512, eps=1e-05, momentum=0.1, affine=True, track_running_stats=True)\n  )\n)", "parameters": [["conv1.weight", [512, 256, 3, 3]], ["bn1.weight", [512]], ["bn1.bias", [512]], ["conv2.weight", [512, 512, 3, 3]], ["bn2.weight", [512]], ["bn2.bias", [512]], ["downsample.0.weight", [512, 256, 1, 1]], ["downsample.1.weight", [512]], ["downsample.1.bias", [512]]], "output_shape": [[12, 512, 16, 16]], "num_parameters": [1179648, 512, 512, 2359296, 512, 512, 131072, 512, 512]}, {"name": "encoder.7.1", "id": 124166100183888, "class_name": "BasicBlock(\n  (conv1): Conv2d(512, 512, kernel_size=(3, 3), stride=(1, 1), padding=(1, 1), bias=False)\n  (bn1): BatchNorm2d(512, eps=1e-05, momentum=0.1, affine=True, track_running_stats=True)\n  (relu): ReLU(inplace=True)\n  (conv2): Conv2d(512, 512, kernel_size=(3, 3), stride=(1, 1), padding=(1, 1), bias=False)\n  (bn2): BatchNorm2d(512, eps=1e-05, momentum=0.1, affine=True, track_running_stats=True)\n)", "parameters": [["conv1.weight", [512, 512, 3, 3]], ["bn1.weight", [512]], ["bn1.bias", [512]], ["conv2.weight", [512, 512, 3, 3]], ["bn2.weight", [512]], ["bn2.bias", [512]]], "output_shape": [[12, 512, 16, 16]], "num_parameters": [2359296, 512, 512, 2359296, 512, 512]}, {"name": "c5top5", "id": 124166113999600, "class_name"
…
